KartSampleMLAgents/Assets/MyKart/MyKartAgentElviss.onnx (onnx, 8187 bytes, 3 tensors)

network_body._body_endoder.seq_layers.0.weight f4 [20, 80]
000000 37 5b 27 3d 8a 00 58 3d 17 a2 25 be 11 16 43 bd
       0.040858474 0.05273489 -0.16175114 -0.047628466
000010 9d d0 33 bd 1b ef 41 3d 0e c4 9c 3d ba d4 8c 3e
       -0.04390012 0.04734717 0.07654582 0.27506047
000020 e6 0a 46 3e 9b c3 bf bd 72 f4 90 3e 41 98 52 bc
       0.19340095 -0.09363481 0.28311497 -0.012853683
000030 87 68 a0 3d 31 78 8b 3e 8e 9d 58 be 37 97 35 3d
       0.07832437 0.27240136 -0.21153852 0.044333663
000040 84 9c 65 3d 8e 3c d7 3d bc e8 27 bd 88 ac 1a 3c
       0.056057468 0.10509597 -0.040993437 0.009440549
000050 35 f1 55 bd 90 ce 82 bd 35 6b 05 3e cf fc 1c bd
       -0.052231986 -0.06387055 0.13029177 -0.038327035
000060 61 e8 00 bd 2d 0b 8e 3d d9 cb e3 3d 87 98 1a be
       -0.031471614 0.06935725 0.11122865 -0.15097247
000070 f1 53 4d 3d 84 5d ee bb 3d 93 b8 3c 9e 6a 92 bd
       0.05012888 -0.0072743315 0.022531146 -0.07149242
000080 c4 78 54 bc ef b6 ac 3d 6e c8 43 3e 8c 60 00 3e
       -0.012968246 0.08433329 0.19119427 0.1253683
000090 74 53 ba bd cb 99 28 be 20 2d 0a 3e 04 04 21 bd
       -0.09097949 -0.16464917 0.13493776 -0.03931047
0000a0 ad a9 65 bd 96 a8 0b be ab df ba bc 83 a7 2f 3c
       -0.05607002 -0.13638529 -0.022811731 0.01072109
0000b0 37 c4 87 3c 43 6a 90 bd 41 96 a1 bd 8b 76 54 3c
       0.016573055 -0.07051518 -0.07889987 0.012967716
0000c0 a7 28 e1 3d 05 68 86 3d 50 98 bb ba 30 d6 62 be
       0.10994082 0.06562809 -0.001431236 -0.22152019
0000d0 29 5b 04 be a7 a5 bd 3d e0 2d a4 bd 0a 4d 24 be
       -0.129254 0.09260111 -0.080165625 -0.16045013
0000e0 d3 c0 4a 3d e0 28 19 3c 02 61 83 bc 54 52 fd bd
       0.049500298 0.009348124 -0.016037468 -0.123692185
0000f0 22 e7 6d 3d 64 f8 d1 3b 22 84 d7 bd 83 3e d3 3d
       0.058081754 0.0064077843 -0.10523249 0.103146575
000100 ef 8a 1d 3e bf ae 28 3d 9d 08 50 3e 7d f7 64 3d
       0.1538503 0.041182276 0.20315786 0.055900086
000110 62 8d e7 3d 1b e3 4b bd a3 55 87 3d 51 27 0b 3e
       0.113062635 -0.04977713 0.06608131 0.13589217
000120 27 a2 0e bd 67 17 9b bd a9 b2 41 3d 8d bb 32 3e
       -0.03482261 -0.07572823 0.047289524 0.17454357
000130 be 1d 75 3e 2a cd 04 3e b3 99 fa bc 41 91 92 bd
       0.23937127 0.12968889 -0.030590868 -0.07156611
000140 c3 04 fe 3d 08 ed 8d bd 6f 6b 07 be 0e 78 a5 3e
       0.12403252 -0.06929976 -0.13224576 0.32318157
000150 88 f6 37 3d 7d 36 66 3c 14 ae 5f bd 6f 8f 3c 3d
       0.044912845 0.014051077 -0.054609373 0.046035226
000160 25 26 d8 bd b9 06 0b be a3 60 b7 3d 7f 6e 8a bc
       -0.105541505 -0.13576783 0.08953979 -0.016898392
000170 e4 ca 0e bd f8 20 b9 3d fe 53 ad bb 91 5d c0 bc
       -0.03486146 0.090394914 -0.0052895537 -0.023482116
000180 ff 09 91 3d 2a f3 d4 bc 2d cb a0 3e c6 3f 0a be
       0.07081985 -0.025994856 0.3140501 -0.1350089
000190 1c 18 10 be a6 8f 1d 3e 16 47 2b 3c 24 6d 97 3b
       -0.14071697 0.15386829 0.01045396 0.004621165
0001a0 b2 07 29 3e c6 f1 40 3d b1 31 c1 bd 2d 2c 96 be
       0.16506842 0.047105573 -0.09433306 -0.29330578
0001b0 3e 7d d5 bd 91 d1 84 3d 26 17 c9 3d bc aa 64 bd
       -0.10424279 0.06485284 0.09818868 -0.055826887
0001c0 d5 6a 27 3e 66 e5 f3 3c 0c 23 b1 3d d1 82 ec 3d
       0.16349347 0.029772472 0.08649263 0.11548389
0001d0 44 5e 33 be 18 9b 02 3e fa cb 15 be 41 4c 29 be
       -0.17516428 0.12754476 -0.14628592 -0.16532995
0001e0 7b 8c ab bc 96 be 02 be 97 31 d8 3d 5a 19 33 3e
       -0.02094101 -0.12768015 0.105563335 0.1749014
0001f0 f6 d7 eb 3d cc 67 06 be 33 30 8b 3c 13 57 85 bc
       0.11515801 -0.13125533 0.016990757 -0.016276872
000200 03 72 9f bd dd 76 70 bc c2 3d a0 3d ab 66 25 3e
       -0.07785418 -0.014676777 0.07824279 0.16152446
000210 95 25 7e 3d 3e e0 93 bd 04 17 d7 3c d6 2a 88 be
       0.06204756 -0.07220505 0.026256092 -0.2659518
000220 36 f5 41 3d 83 ec 30 bd 90 27 d5 bc a4 44 50 3d
       0.047352992 -0.043194305 -0.026019841 0.05084671
000230 a6 18 2b bd df 62 db bb a9 39 41 3e ea 37 95 bd
       -0.041771553 -0.006695136 0.18869652 -0.072860554
000240 c4 3f f4 bc 1c 6f 36 be 3e 93 e8 3d ca 1a 1a be
       -0.029815562 -0.17815822 0.11356209 -0.15049282
000250 f4 01 15 be fa 1e 91 bd 71 6e 52 3d 24 4d 28 3e
       -0.14551526 -0.070859864 0.051374856 0.16435677
000260 08 95 ca bc d9 ba 50 be 25 95 b2 bd fb 55 b7 3d
       -0.024729267 -0.20383777 -0.08719853 0.08951946
000270 8f 36 0a 3e 05 77 5f 3e 7f 03 a3 bc de 73 9a 3d
       0.13497375 0.21822746 -0.019899128 0.07541631
000280 93 ea 42 bd e1 de 87 bd c1 b0 9f 3d a4 d9 b2 3d
       -0.04758699 -0.06634308 0.07797385 0.08732918
000290 34 63 8b bd f1 3c 15 3d 2f cb 1d 3e 1d 7a a2 3d
       -0.06806031 0.03643507 0.1540954 0.079334475
0002a0 31 ff e8 3d 03 94 8f bd fc a4 4d be 07 92 11 3e
       0.11376799 -0.07010653 -0.20082468 0.14215861
0002b0 3f 5a b6 bd 53 18 ba bd c6 a0 0f 3e fe b1 3a be
       -0.08903932 -0.09086671 0.14026174 -0.18231961
0002c0 08 04 6f 3c f5 41 70 be b3 95 ca 3d 0b 52 90 be
       0.0145883635 -0.2346266 0.09891834 -0.28187594
0002d0 3c 42 03 be 42 04 85 bd fa 8b cf 3d 14 2b 62 3d
       -0.12818235 -0.06494953 0.1013412 0.055216864
0002e0 0e 3c 8f bd 01 c5 6e be 4b 66 3c 3e 91 b1 2b 3e
       -0.069938764 -0.23317339 0.18398397 0.16766955
0002f0 55 fa 5b 3d 44 06 67 3b 91 2d c4 bd 18 67 64 3e
       0.053705532 0.0035251537 -0.095790036 0.22304952
000300 dc 5d b8 bc 29 47 76 3e 49 eb 85 bd c7 af 0d 3e
       -0.022505693 0.24050583 -0.06539018 0.13836585
000310 42 19 2d be ae 9d 6a bd d4 77 87 3e e3 c7 bf bc
       -0.16904166 -0.05727928 0.2645861 -0.023410743
000320 88 68 38 be 49 3b 99 3d 40 ee 10 3e 1b c7 b2 bb
       -0.18008626 0.07482011 0.14153385 -0.005455864
000330 f5 d3 10 be 1a 89 c4 bd 5b 20 0e bd 3e 57 9e 3d
       -0.14143355 -0.095964625 -0.034698825 0.07731484
000340 4b 30 ce bc d3 41 fe 3d e0 bc 78 bd 28 63 f3 bd
       -0.025169512 0.12414899 -0.060727 -0.11884147
000350 f8 a4 4a bd 5e fc ff 3b 7e 8f 51 3e b4 a6 51 3d
       -0.049473733 0.007812067 0.20464894 0.05118437
000360 cf b3 53 3d 1c 29 71 bd b6 81 82 bd 9a 08 de bd
       0.05168515 -0.058877096 -0.06372397 -0.10841484
000370 11 80 a7 3c 40 5e 01 be 10 73 ac 3c 3f f8 29 3d
       0.020446809 -0.1263361 0.02105096 0.04149651
000380 ae 40 23 3c bc bf e6 bd 96 30 4a 3e e7 09 c6 3d
       0.009964151 -0.11267039 0.19745097 0.096698575
000390 32 f5 39 3d fc b8 a1 3c 08 37 3f 3e e4 c4 0b 3e
       0.045399852 0.019741528 0.18673337 0.13649327
0003a0 7a d2 11 3e 30 73 5f be 34 3e a4 3d 17 84 0a 3e
       0.14240447 -0.21821284 0.08019677 0.13526951
0003b0 64 b9 8b 3e b3 0f 5c 3a 2b a0 b9 be a8 68 66 be
       0.2728988 0.00083946734 -0.3625501 -0.2250086
0003c0 84 03 55 3d 7a e1 65 3c 50 4b af 3b fa 3b 79 be
       0.052005306 0.014030809 0.005349554 -0.24339285
0003d0 dc 6d 02 be 4c 13 22 bc fa 13 f9 bd c0 1f 0e 3e
       -0.1273722 -0.009892296 -0.12162013 0.13879299
0003e0 42 32 38 be e9 cb ea bc 72 f4 67 bd 0a 45 9f 3d
       -0.17987922 -0.028661685 -0.056629606 0.0777684
0003f0 4c c9 f9 bd bb d6 56 bc 74 bb 1e be 67 c7 2d 3e
       -0.121965975 -0.013112719 -0.15501195 0.16970597

network_body._body_endoder.seq_layers.0.bias f4 [20]
000000 da e6 c3 bc 8e a7 12 bd d4 b1 85 bc d0 30 db bc
       -0.02391379 -0.035804324 -0.016320147 -0.026756674
000010 51 88 07 bd 24 df 0a 3d 0c f9 3c 3c 80 1a 91 bd
       -0.033088986 0.03390421 0.011533987 -0.070851326
000020 5b 8c 24 3d 1a e3 89 bd b3 9d 9e 3d 2b ab a0 3d
       0.040172916 -0.06732769 0.077449225 0.07845148
000030 2e 98 a4 3c 1b ab 8b 3c bf 00 38 3d e8 96 98 bc
       0.020092096 0.017049363 0.044922587 -0.018626645
000040 3d 6f 53 3c 10 7d dc 3c 7f a0 f3 bc 97 98 94 bc
       0.012904939 0.026915103 -0.029739616 -0.018139167

action_model._continuous_distribution.mu.weight f4 [1, 20]
000000 60 d6 3c bd 7d fa cd bb 66 0c f7 bd da 19 50 bd
       -0.04610288 -0.006285964 -0.12062912 -0.050805904
000010 40 79 95 3c de 3c 0d be 79 1f 5d 3d a8 95 e0 bd
       0.018246293 -0.1379275 0.053985093 -0.10966045
000020 ac 7a c6 3d 81 2f 3c bc 01 9e 2b be 06 d8 1d 3d
       0.096913666 -0.011485935 -0.16759492 0.038536094
000030 17 18 3e bd 89 c4 c7 bd e1 a1 90 3d 79 b6 78 bd
       -0.046409693 -0.09754283 0.07062126 -0.060720894
000040 31 d4 e1 3c 51 21 2e bd f6 8a e3 bc 96 be f7 bc
       0.027567001 -0.04251224 -0.027776223 -0.030242246
